models/inverse_pinn.pt (torch, 141273 bytes, 10 tensors)

netV.net.0.weight f4 [128, 2]
000000 ab 44 53 3d 85 76 6a bc ca 38 8e 3d 17 f4 1a 3e
       0.05157916 -0.014310484 0.069444254 0.15132175
000010 59 dc a3 bc 97 7a e8 3c fa bc 2d bd b8 c1 2a bd
       -0.02000253 0.028378768 -0.04241655 -0.04168865
000020 44 98 b3 3d ec 36 ef ba 8f d1 4b bc 03 84 9f 3c
       0.08769277 -0.0018250621 -0.012440099 0.019472128
000030 a8 d1 6a 3d da 92 ed 3c 29 8c 5d bd b3 42 83 3c
       0.05732885 0.029000688 -0.054088745 0.016023016
000040 8b 6d c3 3e 78 0e 0a 3d 7a 72 10 3e 4f 03 3c 3d
       0.38169512 0.033705205 0.1410617 0.045901593
000050 77 96 05 3e e2 ea c5 bd 81 37 5f be dd 09 11 bd
       0.13045679 -0.09663941 -0.21798517 -0.035409797
000060 03 59 77 3e ca 08 83 3c b9 95 09 3d 51 87 1b bc
       0.24155049 0.015995402 0.033590052 -0.009492711
000070 df 4a 00 3e 0a 63 5d 3e f8 2c 19 3e a7 37 1d bd
       0.12528561 0.21619812 0.1495856 -0.038383152
000080 bb a1 a9 3e 60 31 e1 bb b8 78 b2 bb 00 d4 6e 38
       0.33131203 -0.006872341 -0.0054465197 5.6941062e-05
000090 c9 80 12 be e5 51 16 3d 32 88 46 3c b5 52 92 3b
       -0.1430694 0.036699194 0.012117432 0.004465426
0000a0 be 79 1c 3e c7 38 17 bd 38 0f ab be c8 8f b1 3c
       0.15280816 -0.03691938 -0.33410048 0.021675006
0000b0 7d fd 97 3e 33 52 20 bb c6 58 b0 3e 66 29 29 3c
       0.29685584 -0.0024463057 0.3444273 0.010324812
0000c0 e3 83 5a be d4 63 7d bd c2 d6 ea be db b8 3b bc
       -0.21339373 -0.06186278 -0.45866972 -0.011457647
0000d0 a2 40 0b 3e fb a1 bf 3c f5 ec 91 be 92 e0 28 3d
       0.13598874 0.023392668 -0.28501096 0.041229792
0000e0 fc cf 9a bd ba 0b 8d 3c 5d 30 29 3e c2 16 32 3a
       -0.07559201 0.017217506 0.16522355 0.00067935523
0000f0 aa 33 17 3e e9 97 f4 3b 9b 7d c3 3e fc ce 04 3b
       0.14765802 0.007464398 0.38181767 0.0020264974
000100 6b 13 bc be d7 8b 47 3c 3c 8b a5 3e 0c 89 9a bc
       -0.36733565 0.0121793365 0.3233279 -0.018864177
000110 49 be 75 be 62 91 26 3e be 39 44 be 59 78 3e 3c
       -0.2399837 0.16266397 -0.19162652 0.011625373
000120 2e 5e e5 bc 9e 66 cd 3b 34 aa be bc 7c 5a 9f bc
       -0.02799901 0.0062683364 -0.023274519 -0.019452326
000130 7d 04 51 be 8a 0c a4 bb ae 36 b5 be e8 e5 61 3c
       -0.20411868 -0.0050063776 -0.3539328 0.013787724
000140 36 db c2 3e e8 9c 30 3d 23 5f 38 be 4b 40 f6 3d
       0.3805787 0.043118387 -0.18005042 0.12023982
000150 93 02 7d bc 1d 30 e2 3c 5f f1 b3 be 9b 53 cf bc
       -0.015442508 0.027610833 -0.3514509 -0.02530842
000160 66 87 1d be 97 34 1c bd 55 22 85 3b ec ec 1a 3c
       -0.15383682 -0.03813609 0.0040629306 0.009455901
000170 fb 71 29 3e 6e 97 a2 bd 31 0e 56 3d 72 30 01 bc
       0.16547386 -0.07939039 0.052259628 -0.007885085
000180 d2 ec a5 be 3e 40 74 bc 59 ea 9c 3e 19 79 23 3c
       -0.32407242 -0.014907895 0.30647543 0.009977602
000190 1d 5d 93 3e 81 a8 51 3c 3b dc 93 3d cb d4 e6 bd
       0.28781977 0.012796522 0.0721974 -0.11271056
0001a0 c9 a9 81 3e 14 81 b4 bb d9 f1 db bd 76 98 e5 3c
       0.25324848 -0.0055085514 -0.10739488 0.0280268
0001b0 cf 00 4a 3d 91 a4 66 bc 81 fc 9e be 35 bd a9 bc
       0.049317177 -0.014077322 -0.3105202 -0.020720104
0001c0 39 1e a2 be 8d 05 8d 3d 3d ce ee bd fb 4c dd bc
       -0.31663683 0.06885824 -0.116604306 -0.027014246
0001d0 c6 58 8f be 6f dd b1 3c 58 26 e1 3d ad 71 ca bc
       -0.27997416 0.021712033 0.109936416 -0.024712408
0001e0 9d e2 07 be 10 6d b7 bb 1c e1 e8 3e 7c c1 bc 3a
       -0.1327004 -0.005597718 0.45484245 0.0014400925
0001f0 8c 19 a1 3e 23 38 2d 3d c2 0a ce be 96 ac 53 3d
       0.31464803 0.042289864 -0.40242583 0.051678263
000200 57 ef 0a be ac 39 6c 3c ce 0e 56 be 5a cc 1c 3b
       -0.13567863 0.014418047 -0.20904085 0.0023925514
000210 33 10 38 3e 03 35 04 3d 20 1a 13 3e b0 d2 0c bb
       0.1797493 0.03227712 0.14365435 -0.0021487884
000220 7e fc 05 3e ea 76 a2 bb 39 b3 24 3d 62 ea 22 3c
       0.130846 -0.0049580233 0.040209983 0.0099435765
000230 44 55 6f be 2a 88 d3 3d 50 dc 24 3e 97 e3 cd 3c
       -0.2337237 0.103287056 0.16099668 0.025132937
000240 6d 67 68 3e 6a d6 2a 3c 1c 27 40 3e c6 f3 b3 bc
       0.22695704 0.010427097 0.18764919 -0.021966826
000250 bd 7e 47 bd e2 c9 c2 bc f8 bd d9 be 69 d2 04 bc
       -0.04870485 -0.023777906 -0.42527747 -0.008106806
000260 5e c6 bf bd bc 75 05 bd a9 83 11 be 1c ca ec bc
       -0.093640074 -0.032582983 -0.1421038 -0.028904967
000270 b2 f7 3b 3e cd f2 f8 bd 35 94 78 3e 45 ae 6e bd
       0.18356207 -0.121556856 0.24275286 -0.058271665
000280 1d 54 16 be 9d f9 a3 bd 99 5a 7a 3e aa 93 ac bc
       -0.14680524 -0.08006594 0.24448623 -0.021066505
000290 be c2 3a bd 6b fe bb 3c 11 18 d3 3d 55 b6 a5 3c
       -0.045595877 0.022948464 0.10307325 0.020228544
0002a0 28 d9 a7 be ac 98 0d bc 6b 1f 3d 3e c6 33 b2 bc
       -0.32782865 -0.008642357 0.18469016 -0.021753203
0002b0 51 19 3e 3d 92 a5 06 3e 79 9d 89 3d dd 8e 5b 3b
       0.046410862 0.13149098 0.06719489 0.0033501901
0002c0 60 01 24 3c 6c a1 f8 bb f9 4b 4c 3e a5 49 f3 3c
       0.010010093 -0.0075876024 0.19950856 0.029698202
0002d0 1d 13 2f 3e ba 07 a2 3c ef 58 87 3e 56 dd 23 bc
       0.17097135 0.019779075 0.26435038 -0.010001501
0002e0 4c be c1 3e 6b 28 bb bc 3c e9 d0 bd 74 04 56 3d
       0.37840497 -0.022846421 -0.10200736 0.05225034
0002f0 df 37 77 3e f7 ea e4 bb 55 49 d3 3e 47 89 b2 bd
       0.24142407 -0.006986018 0.41266885 -0.0871759
000300 11 39 bf bd 9e a3 55 bb 4c e5 b2 be e3 7d 86 bc
       -0.093370564 -0.0032598744 -0.34940565 -0.01641745
000310 bc 13 41 bd bc 56 f7 ba 05 3c f5 3c 85 b7 b6 3c
       -0.04713796 -0.0018870453 0.029935846 0.022304306
000320 a0 bf 94 bd fe 9d 91 39 c7 67 f8 3d 86 4c 0f ba
       -0.07263112 0.00027774269 0.12129169 -0.000546642
000330 7c aa 3c 3e 57 70 7b bc 85 da e4 3e c3 68 8f 3c
       0.1842441 -0.015346608 0.44697967 0.017506009
000340 53 38 45 3e 5a b0 69 bc 72 2c 3c 3e 61 d8 3b bd
       0.19259767 -0.014263237 0.1837633 -0.045860652
000350 9e 85 19 be 03 22 80 3c 8e c2 36 bb 49 09 c2 bb
       -0.14992377 0.015641218 -0.002788696 -0.005921517
000360 cd 4f b2 bd 97 fa 8a bc 67 9d 4a 3d 69 de 5b bd
       -0.08706627 -0.016965194 0.049466517 -0.053678904
000370 88 3e dc bc e6 88 60 3b 2f ec 63 be 8c f2 af 3b
       -0.026885286 0.0034261285 -0.22258066 0.00536949
000380 ca 32 f5 be 25 16 f3 3b 09 80 9f 3e 6a 1e 73 39
       -0.4789031 0.0074184113 0.3115237 0.00023185616
000390 33 87 80 be d3 98 16 bd 46 56 ca 3e ad e9 52 3d
       -0.2510315 -0.03676684 0.39518946 0.05149238
0003a0 7a 77 8b 3e 45 a7 f6 3d 08 8d 43 be 00 4f 0f bc
       0.2723959 0.12043623 -0.19096768 -0.008746862
0003b0 02 9c 89 be 33 32 63 bb 4d e4 e0 bd 10 6e 18 bc
       -0.26876837 -0.0034667372 -0.10981045 -0.009303585
0003c0 b3 99 bd 3e c0 e2 73 3d 10 54 08 3e f2 5c 05 bc
       0.37031326 0.059542418 0.13313317 -0.008139836
0003d0 7b 77 5a 3e d2 03 88 3c 06 cd 01 be 25 f9 78 bd
       0.2133464 0.016603384 -0.12675866 -0.060784478
0003e0 11 d2 40 3e 84 9d 00 bb 0a 2a 9a 3e 46 45 02 3c
       0.18830134 -0.0019625137 0.30110198 0.007951086
0003f0 56 35 d0 bd ed 81 01 bd d9 87 a5 be 1e 12 f2 bc
       -0.10166423 -0.031618048 -0.32330206 -0.029549655

netV.net.0.bias f4 [128]
000000 aa 28 22 3e b9 5e 09 3e af 28 3c be 3c 2d 82 3e
       0.15835825 0.1341504 -0.18374895 0.25425136
000010 01 27 f9 3d ef aa 48 be e7 65 81 be 34 11 2b be
       0.121656425 -0.19596456 -0.25273058 -0.16705781
000020 d0 26 41 bd e8 33 c1 3d b6 ba bd 3d ac bc d3 bb
       -0.047156155 0.094337285 0.09264128 -0.0064617004
000030 e2 fa b2 bc a3 f0 70 be ce f5 2e bd 86 b2 9f 3d
       -0.021848146 -0.23529296 -0.042714886 0.077977225
000040 6c 22 0b bd 91 25 43 3e 45 b0 d6 bd 80 7f 62 be
       -0.033968374 0.19057299 -0.104828395 -0.2211895
000050 74 96 8a 3d f0 54 c5 3d 9c aa 33 3c 97 c6 f8 bc
       0.06766978 0.09635341 0.010965969 -0.030368133
000060 76 4e 53 bd 29 16 ef 3d b7 b5 e0 3d 98 cf 16 bb
       -0.051588498 0.116741486 0.10972159 -0.002301192
000070 f0 2e 08 be a7 29 81 3d 8f 1a af be 93 be cb bd
       -0.13299155 0.06306773 -0.3419995 -0.099484585
000080 99 1d 9a 3c 95 c5 a3 bc 97 85 d5 bb ca 64 95 bd
       0.018812941 -0.019991675 -0.0065161693 -0.072946146
000090 50 7a 34 be ec db 3b be dd 0b 24 bd fe a4 1f 3d
       -0.17624784 -0.18345612 -0.040050376 0.03897571
0000a0 67 4b 0f bd 4e 29 64 bd 88 46 64 3e 70 fa c9 3d
       -0.03498402 -0.055703454 0.2229253 0.0986222
0000b0 e5 9d 62 bd 6d 62 57 3e fa a4 8f 3d 64 f3 34 3e
       -0.05532636 0.2103364 0.07013889 0.17670971
0000c0 5f 18 db 3e 1a 1f 18 bd 90 e5 d1 be 22 27 20 3e
       0.4279203 -0.037139036 -0.40995455 0.15639928
0000d0 f5 2f 4f be 90 e9 fb bd d8 1e 30 3e 4e 8e 81 3d
       -0.20233138 -0.12300408 0.17199266 0.063259706
0000e0 d8 3f 63 3e 6b b8 ec bd c6 79 60 bc 31 d9 f0 3d
       0.22192323 -0.115586124 -0.013700908 0.11760176
0000f0 59 4e df bd db 84 ad bd 6c 8f 88 bc 6b c8 c5 3d
       -0.109036155 -0.08472606 -0.016669951 0.09657367
000100 61 5f de bd 3b ce 35 bd fa c6 35 3d f5 54 bb 3d
       -0.10858036 -0.04438613 0.044379212 0.09147064
000110 f5 96 a3 3d 8f 9d 80 be aa 25 c3 bc 60 9b a3 3d
       0.07987777 -0.25120208 -0.02382167 0.0798862
000120 1c b3 00 3d 5c fa b8 be 79 d6 2e be 76 0a cb 3d
       0.031420812 -0.3612851 -0.17074002 0.09914105
000130 04 a3 e5 bd f5 9b b4 bd 82 e3 74 3b e9 b7 b3 bd
       -0.112127334 -0.08818809 0.003736705 -0.087753125
000140 d3 c6 9a bd 43 0b 1d 3d f6 1c 21 be d9 e4 ba 3d
       -0.07557454 0.038340818 -0.15733704 0.091256805
000150 3e 4e e5 3c 88 90 63 3d cb ae 09 3e c9 8b 25 3e
       0.02799141 0.055557758 0.13445584 0.16166605
000160 68 47 62 be 8d 11 82 3d 37 3d 5d 3d ef 33 b6 3a
       -0.22097552 0.06351004 0.054013457 0.0013900975
000170 a6 44 c1 bd 80 dd fc bd 26 d4 cf be 58 e3 9d bd
       -0.09436922 -0.12346935 -0.40591544 -0.07709378
000180 8a e5 0b be e4 67 8d 3d 97 c0 1b be b0 28 39 3e
       -0.13661781 0.06904581 -0.15210186 0.18081927
000190 14 41 29 be 3c 8a 98 be 1b 2b ae be 30 c5 b0 bd
       -0.16528732 -0.29792964 -0.34017262 -0.086313605
0001a0 7e 56 8f 3d 0e 96 95 3d 46 d9 97 bd 1a 2d 56 be
       0.06998919 0.07304011 -0.074144885 -0.20915642
0001b0 60 26 16 be 6b fa 24 3e 0e 67 28 be 1c 00 55 bc
       -0.14663076 0.16111152 -0.16445562 -0.013000514
0001c0 46 60 a7 3d a8 71 02 bd 03 8b f5 bc 4e 8e d1 bd
       0.081726596 -0.031846672 -0.029973513 -0.102322206
0001d0 52 7b 2a 3c 2a bb a9 bd 57 7b da 3e e3 e4 cb bd
       0.010405378 -0.08287652 0.42672226 -0.09955766
0001e0 c0 d8 5d bb e6 1e d2 3d ed 21 fa 3c d4 20 ee bd
       -0.0033851117 0.102598 0.030533755 -0.11627355
0001f0 74 3e ad 3d b0 a6 f7 bc 36 be 0b be 6a 77 c8 3d
       0.084591776 -0.03023085 -0.13646778 0.097884014

netV.net.2.weight f4 [128, 128]
000000 84 0d 1b bc ea fd 2d 3e 3a 81 71 bb 97 24 5e 3e
       -0.009463672 0.16991392 -0.0036850707 0.21693645
000010 97 c1 ca bd 2c de 01 be 7b a8 09 be 76 fc 0b 3d
       -0.099002056 -0.12682408 -0.13443176 0.034176312
000020 96 7c 84 be fc a2 20 be 8a e1 8a be d6 0e b5 3d
       -0.25876302 -0.15687174 -0.27125198 0.0884072
000030 c6 9f 4c be b8 9e 53 be 72 62 88 be 22 ae d4 bc
       -0.19982824 -0.20666015 -0.26637608 -0.02596194
000040 a3 1b 60 be 69 42 8d bc 91 21 39 3e c9 49 d6 3b
       -0.21885543 -0.01724358 0.18079211 0.0065395576
000050 ce 7b c6 3c b3 f0 22 3e 6e 6e dc 3d be 6b 0e be
       0.024228957 0.15912132 0.1076325 -0.13908288
000060 57 37 5f 3d ef ab f1 3c 1a 54 a4 3d e5 91 78 3d
       0.054496136 0.02950093 0.080238536 0.06068601
000070 db 85 70 bd 1e d9 bd bd 82 1d 72 be 46 db 2a be
       -0.058721405 -0.092699274 -0.23644069 -0.16685209
000080 d3 b6 a4 bc 85 32 d0 3c cb 3e e3 3d 09 9c 20 3d
       -0.020106709 0.025414715 0.11095961 0.039211307
000090 89 da 03 be 92 8c a7 3d 23 42 9f 3d b9 77 9b 3e
       -0.12876333 0.081811085 0.077762865 0.3036478
0000a0 7d 11 01 be c0 6d 18 3e 62 2a 58 3e 8e 6f 1e 3e
       -0.12604327 0.14885616 0.21109918 0.15472242
0000b0 6e f0 e2 3d 28 b4 8f 3d a5 cb 8b be ab 82 83 bd
       0.110810146 0.07016784 -0.27303806 -0.06421407
0000c0 59 05 e4 3e f4 a7 90 be 89 39 8c be ef b7 8e bb
       0.4453533 -0.28253138 -0.27387646 -0.0043554227
0000d0 2a 8d c4 be 68 10 ba bd 9e bb e4 3c 29 63 1b 3e
       -0.3838895 -0.090851605 0.027921494 0.15174545
0000e0 26 de 8f 3e 1a 34 1f 3d c5 b4 fe 3c df c8 71 be
       0.28099173 0.038868047 0.031092057 -0.23611782
0000f0 f3 0a 33 be 48 80 24 3d c4 50 1d be d5 0e 32 3e
       -0.17484646 0.0401614 -0.15362841 0.1738847
000100 41 1e 0f 3d 42 46 a8 bc a7 d1 cc bd 16 de 69 bd
       0.03494096 -0.020541314 -0.100009255 -0.057096563
000110 b9 bc fe bd 21 17 b1 bc b7 b2 57 3e 1e f7 eb bd
       -0.1243834 -0.021617474 0.21064268 -0.11521743
000120 a6 57 5b be ae 1c 94 be 78 dc 2e 3e 03 02 1f 3e
       -0.21420154 -0.2892813 0.1707629 0.15528111
000130 0e ec 28 3e 25 d5 27 3b b3 19 66 bd cd 06 b1 bc
       0.16496298 0.0025609222 -0.056176852 -0.021609688
000140 e9 ba 06 be d2 c0 95 bd 10 45 24 bd 0a a5 ff 3c
       -0.13157238 -0.07312168 -0.040104926 0.031206626
000150 a5 bf 29 3e d3 6c ff bb 22 6c 13 be f6 cb 2c be
       0.16577013 -0.0077949553 -0.14396718 -0.1687468
000160 8a 6f 18 bd 54 3d 39 be 9c 61 05 be 16 e2 08 be
       -0.037215747 -0.18089801 -0.13025516 -0.13367495
000170 2e 00 05 be e8 7b fb bd a7 a4 58 be c3 6a 96 bd
       -0.1298835 -0.122794926 -0.2115656 -0.07344582
000180 23 4a db 3d 10 bc f0 3d 48 5e ac 3d af 14 98 3d
       0.107075 0.1175462 0.0841642 0.0742582
000190 46 f1 10 3e ff ab 44 be 57 77 4f be 64 6d 23 be
       0.14154539 -0.19206236 -0.20260368 -0.15959698
0001a0 38 c9 06 be 76 de df bd d2 2b b7 3d b2 be 98 3c
       -0.13162696 -0.10931103 0.08943905 0.018645618
0001b0 70 2c b3 3d f3 03 e6 3d 71 db 69 bb 83 68 01 3e
       0.0874871 0.11231222 -0.0035683776 0.12637524
0001c0 2a 8d a5 3d f1 1a 74 bd 7c c4 45 3e 52 48 d3 bd
       0.080835655 -0.059596006 0.19313234 -0.103165284
0001d0 35 9e 83 3c ba 04 0a 3d fe a6 a4 3e 80 c7 16 3e
       0.01606665 0.033695914 0.32158655 0.1472454
0001e0 c0 5a b7 bd df 24 a4 3c ff 05 c7 bd 68 c1 64 3e
       -0.08952856 0.020037113 -0.097179405 0.22339404
0001f0 34 c5 10 3e ae d8 d6 bd 75 47 18 3d 61 f6 25 bc
       0.14137727 -0.10490547 0.03717752 -0.010129542
000200 dc ae 17 3d 7c f5 86 3d 2d 1a 19 be 33 40 cd 3d
       0.037031993 0.06589791 -0.14951392 0.10022011
000210 38 e2 98 bc 24 3e ce bd 88 87 60 be bc ff 3c 3c
       -0.018662557 -0.10070446 -0.21926701 0.011535581
000220 d4 f4 c6 be b2 a6 c9 bd 8e 8a d6 bd 4c f6 61 3e
       -0.38858664 -0.09846248 -0.10475646 0.22066611
000230 53 34 b6 bd 20 a2 42 3d 41 97 ce bd 01 f9 e3 bd
       -0.08896699 0.047517896 -0.10087443 -0.11131478
000240 56 e9 27 be a2 1f 87 3d 33 b9 31 3e 80 e4 6a bd
       -0.16397604 0.0659783 0.17355804 -0.05734682
000250 02 a8 39 be 01 9b 37 3c 3d bb 0f bd 8d e4 9e bd
       -0.18130496 0.011206389 -0.035090674 -0.07758436
000260 d5 ab 04 bd a2 ee b9 3d 0b 01 61 3c 23 a8 fb 3d
       -0.032390434 0.09078719 0.013733159 0.12287929
000270 fc 9a 3a bd b2 65 c0 bd 9c 66 c3 bd 40 d1 a0 be
       -0.04555796 -0.09394397 -0.095410556 -0.31409645
000280 43 b8 6e 3e be 2d 98 bc e2 81 93 3e 12 83 b4 3c
       0.23312478 -0.0185765 0.2881003 0.022035155
000290 56 0f 5a be a8 d4 c1 bd 6c 19 3b 3e 9b 19 a7 3e
       -0.21294913 -0.09464389 0.18271416 0.32636723
0002a0 2f 89 5b be 63 eb 20 3a fb 47 16 3e b3 7a 7d 3e
       -0.2143905 0.0006138591 0.14675896 0.24753837
0002b0 45 c3 82 bd 63 3e 27 3e 36 09 74 bd bb af 2f 3e
       -0.06384901 0.16332392 -0.059579097 0.1715688
0002c0 56 ce dc 3e b5 37 e6 bd 1f b6 dc be 41 34 2d 3e
       0.43126172 -0.11241094 -0.43107697 0.16914465
0002d0 50 52 83 be 54 f5 0e bc a3 07 50 3c d8 89 4c 3e
       -0.25648737 -0.008725483 0.012697133 0.19974458
0002e0 fb e6 81 3e 52 15 02 3d 23 b1 6a 3d 8a 74 20 3e
       0.25371537 0.031758614 0.057297837 0.15669456
0002f0 9e d0 d7 3d 25 ca 36 bd 8c 96 1a be f2 78 e7 3d
       0.105378374 -0.044626374 -0.15096492 0.11302365
000300 7c f8 2b 3d ec aa 87 3d de e5 58 be ec 74 e6 bc
       0.04198502 0.06624398 -0.21181437 -0.028131925
000310 cf 0d 43 be 0b ce a3 be f6 11 4d 3e c0 7f 81 be
       -0.19048236 -0.31993136 0.20026383 -0.25292778
000320 31 a3 b6 bd 77 94 a5 be 91 33 c8 bd d5 5e ab 3d
       -0.08917845 -0.32339832 -0.097754605 0.08367697
000330 7f 3b bb bd e2 f8 91 3d 8d c0 74 be 08 0d 90 bc
       -0.09142207 0.07127549 -0.23901577 -0.017584339
000340 fc 56 bb 3d f9 9c 8d be af a8 d2 bd 58 30 73 3d
       0.0914745 -0.27658823 -0.1028608 0.059372276
000350 f5 98 ab 3d 4d 6c 6c 3c 70 c0 27 3d fd e9 33 bd
       0.083787836 0.014430118 0.040955007 -0.04392432
000360 30 f7 76 bd 3b 06 7f bd c9 85 bf bd 6f d1 58 bd
       -0.06029433 -0.0622618 -0.09351689 -0.052934106
000370 12 15 87 be 54 d7 c9 bb 3f ad 43 be 5b 3b a5 bd
       -0.26383263 -0.0061597023 -0.19109057 -0.08067962
000380 5f bb 51 3e e6 3e a5 3e 7d b1 3f 3d db c9 cd 3d
       0.20481633 0.3227455 0.046800125 0.100482665
000390 b4 e9 f6 bc 96 5b 93 be c2 92 de be 51 79 31 be
       -0.030140735 -0.28780812 -0.43471342 -0.17331435
0003a0 d9 51 86 3d 7d 39 fe 3c e2 7f c2 3c 5a 30 82 bc
       0.0655858 0.031033272 0.02374262 -0.015892196
0003b0 f1 00 b4 3d da a1 b1 3d cb 4f 31 be ab 0d e2 3d
       0.08789242 0.08673449 -0.17315595 0.11037763
0003c0 ca 87 7a 3c 41 a3 ef bd 78 a6 6a 3e da e9 44 be
       0.015291164 -0.1170106 0.22915065 -0.19229832
0003d0 16 ad 3b bd 2a b7 ba 3d 15 e6 99 3e d6 8f 57 3e
       -0.045819364 0.09116967 0.3005835 0.21050963
0003e0 fb 80 dc bd 6c 32 9d 3d ee 74 a7 bd 94 f1 6a 3d
       -0.107667886 0.07675633 -0.081765994 0.057359293
0003f0 5f 3a 5c 3d 4e a4 f4 bd a8 02 fc 3b d8 a1 2f 3e
       0.053766605 -0.11945401 0.0076907463 0.17151582

netV.net.2.bias f4 [128]
000000 91 09 88 bc 20 86 b4 3c 05 65 c2 3b 65 39 01 be
       -0.016606124 0.022036612 0.0059324526 -0.1261955
000010 3a 0c a4 bc 88 00 13 be 3b 33 ed bd bf b6 38 3d
       -0.020025361 -0.14355671 -0.11582037 0.045096155
000020 36 8a 51 3d a0 57 35 be 34 16 ab bd c2 7a 5f bc
       0.0511572 -0.17709208 -0.08353844 -0.013640108
000030 8c d2 1d be be 89 0e be 28 43 2b bd 50 db d8 3d
       -0.15412349 -0.13919732 -0.041812092 0.105887055
000040 5c 44 4b 3d 05 e4 4b bd fb ab 37 be cc 78 f1 3d
       0.04962574 -0.049778003 -0.17936699 0.11790618
000050 79 8b d3 bd 81 99 e7 3d 30 c0 1a be e6 5a fa 3d
       -0.10329337 0.113085754 -0.15112376 0.12224369
000060 51 76 04 be ba 15 2b bd 9a dd 6e bc 54 7d b0 bc
       -0.12935759 -0.041768767 -0.014579201 -0.021544136
000070 5d a7 72 bc d4 e5 29 bc 85 60 a0 bd 6c 3e 77 be
       -0.01481041 -0.010369737 -0.0783091 -0.24144906
000080 dd f7 81 be ef 4d 01 be ea e7 66 be 73 57 4f 3d
       -0.25384417 -0.12627386 -0.22549406 0.050620507
000090 ab 75 32 be 1f 1c 0a 3c c3 e7 06 3e c3 1e f2 bc
       -0.174277 0.008429556 0.13174348 -0.029555684
0000a0 7a 61 d9 3d da a4 1f 3e 49 0e 2b bd c1 24 d7 bd
       0.10614295 0.1559023 -0.04176167 -0.10505057
0000b0 b9 c1 f6 bd 70 d1 d9 bc 4c 0d 0d be 6e 93 04 3e
       -0.120486684 -0.026589125 -0.13774604 0.12946865
0000c0 5d bb 09 3e b3 0c 12 bc f7 9d c5 3c 33 dc 1c be
       0.1345038 -0.008914161 0.024123175 -0.15318374
0000d0 8d 53 d3 3d 69 03 15 be 74 22 0d bd a3 2a 2a be
       0.103186704 -0.14552082 -0.034456685 -0.16617827
0000e0 52 58 64 bd de d7 cd bd 32 cc f4 3a 8f 82 dc 3d
       -0.05574829 -0.10050939 0.0018676578 0.107670896
0000f0 c5 fa bb bc 29 0c 9f bd 84 f6 37 3d ba 35 1b be
       -0.022946725 -0.07765991 0.04491283 -0.15157214
000100 47 b6 3c be 1f d9 e7 3d 1a 76 02 be 76 eb 8b bd
       -0.18428908 0.113207094 -0.12740365 -0.0683202
000110 7b dc 6a be 31 27 e2 bd be ee 42 be 35 39 f7 bd
       -0.22935669 -0.110426314 -0.19036385 -0.12071458
000120 00 c4 f3 bd 45 6a 08 bd 26 f0 d9 bd b4 9f cf bd
       -0.119026184 -0.03330447 -0.10641508 -0.10137883
000130 bb ed 62 3d c9 ee 5f 3c ec 57 03 be 30 c2 0d be
       0.0554025 0.013667771 -0.12826508 -0.13843608
000140 8e d4 e5 3a e9 52 b5 3a c5 82 0d 3e 44 71 d2 bc
       0.001753466 0.0013833913 0.13819416 -0.025688775
000150 ec dd 1d be 1b 5e e5 bd bb 51 47 bd 62 f3 7e 3d
       -0.15416688 -0.1119959 -0.04866193 0.062243827
000160 1e ab cf 3d f3 a1 c5 3d 84 70 0e be 48 3f 24 be
       0.1014006 0.0965003 -0.13910109 -0.16039765
000170 6d 9f 88 bd db db f4 bd e2 49 72 be ff 0c 74 3d
       -0.06671033 -0.119559966 -0.23660997 0.059582707
000180 de 82 da 3d 12 63 01 be 36 10 4f 3e 31 52 8d bc
       0.10669492 -0.12635449 0.20221028 -0.017251106
000190 69 e5 04 3d e6 22 ba bd ad 62 25 3e 17 d9 03 be
       0.032445345 -0.090886876 0.16150923 -0.12875782
0001a0 aa 11 22 be d9 42 97 3c 77 68 11 bd 27 ca 84 3d
       -0.15827051 0.018464493 -0.035500016 0.0648387
0001b0 b2 73 56 be 14 51 a0 3a cd 50 f5 bd 13 df 2a bd
       -0.20942572 0.0012231194 -0.11978302 -0.041716646
0001c0 dc dd a6 bc 51 7c e9 bd e0 fb ea 3d 02 22 b3 bc
       -0.020369463 -0.114006646 0.114738226 -0.021866802
0001d0 c2 ee 2c 3e 73 e5 3c bb 85 f9 f9 3d b4 ab 24 3e
       0.16887954 -0.0028823286 0.12205795 0.16081125
0001e0 62 7d f0 bb 58 88 08 be 84 03 bb bc 3c 2b 12 bd
       -0.0073391655 -0.13333261 -0.022828825 -0.035685763
0001f0 51 99 00 3e a7 70 29 3c 8b b9 03 3e ff ad c9 3d
       0.12558486 0.0103418 0.12863748 0.0984764

netV.net.4.weight f4 [1, 128]
000000 d5 3b 06 bf a6 7b f5 be 1c 16 d0 3e 72 24 f7 be
       -0.52435046 -0.479459 0.40641868 -0.48269993
000010 23 39 07 3f dd 14 e3 be c1 04 08 bf 42 10 e2 be
       0.5282156 -0.44351855 -0.53132254 -0.4415303
000020 fc fd e8 be 93 c1 d2 be e4 ee 17 bf 82 8e 04 3f
       -0.45506275 -0.4116331 -0.59348893 0.5177995
000030 37 c9 de be 21 3f eb be c4 c6 fc 3e 7e 42 0c 3f
       -0.4351289 -0.459466 0.49370396 0.5478896
000040 2e 15 3a 3f ed 63 14 bf 4e a4 d7 be 68 33 de be
       0.7268857 -0.57964975 -0.42117542 -0.43398595
000050 33 a0 0a bf ec 7e 00 3f 5f 1b cd be a3 ff 02 3f
       -0.54150695 0.5019367 -0.40059945 0.5117132
000060 b0 e2 d7 3e a0 73 cb 3e 4b 30 fc 3e 72 ef 05 3f
       0.42165136 0.39736652 0.49255595 0.5231849
000070 e1 eb 08 3f 92 c0 f2 3e 19 6f df 3e 17 80 d0 be
       0.5348492 0.47412544 0.43639448 -0.40722725
000080 5a 9a cd be d6 1d f5 be 1b b9 ca be 0a f3 ed be
       -0.40156823 -0.47874326 -0.3959435 -0.46474487
000090 dc f8 d7 be b1 2b 0a 3f 55 8f ec 3e 59 55 2a bf
       -0.42182052 0.5397292 0.46203104 -0.6653648
0000a0 43 60 20 3f 45 88 ce 3e ac 7b f7 3e 91 2f 16 bf
       0.62646884 0.4033834 0.48336542 -0.5866633
0000b0 9f 43 00 bf 49 56 1e bf 52 74 d4 be 4c 3d f3 3e
       -0.5010318 -0.6185041 -0.41494995 0.47507703
0000c0 7a c4 e9 3e 1a a2 28 3f 39 c8 07 3f ee 3d e1 be
       0.45657712 0.6587235 0.5303989 -0.4399256
0000d0 21 bc 0c 3f f3 f7 e1 be e5 82 ec 3e 3e 86 cb be
       0.5497456 -0.44134483 0.46193615 -0.39750856
0000e0 f3 cd e5 3e a2 f5 1a bf f3 33 d0 be 57 b1 0a 3f
       0.4488369 -0.60531056 -0.40664634 0.5417685
0000f0 f8 c7 f8 3e 34 a2 de 3e 1d 07 ea be d7 e7 e1 be
       0.48590064 0.43483126 -0.45708552 -0.44122192
000100 5c 01 d3 be f3 f9 00 3f 18 fe f5 be aa 32 d1 3e
       -0.41211975 0.5038139 -0.4804542 0.40858966
000110 6b 43 ca be 63 f2 06 bf 31 f3 cd be 64 c0 f7 be
       -0.3950456 -0.527136 -0.40224603 -0.4838897
000120 40 af 01 bf 66 ac d7 3e ac fb 01 bf 2e 00 d5 3e
       -0.50658035 0.42123717 -0.50774646 0.416017
000130 8b e6 e3 be 5c fd 03 bf a0 a4 d0 be 58 e7 d7 be
       -0.44511828 -0.5155847 -0.407506 -0.4216869
000140 67 1f 13 bf f1 9e 0d 3f bd 35 e3 3e 2b 75 0f bf
       -0.5746979 0.5532065 0.44376937 -0.5603816
000150 cc 1e e2 be c7 19 0c bf fb c9 ee 3e 9c 57 e4 be
       -0.4416412 -0.54726833 0.46638474 -0.4459809
000160 34 f1 02 3f 33 eb 10 3f 26 d5 d2 3e 6e 7a da be
       0.51149297 0.56608886 0.41178244 -0.4267153
000170 af 8e 32 bf 9a 08 f7 be 61 b3 cf be c2 b1 08 3f
       -0.6974897 -0.4824875 -0.40566543 0.53396237
000180 9e 39 2d 3f ef f3 ef be 4b af d2 3e b4 ff 08 bf
       0.6766604 -0.46865794 0.41149363 -0.5351517
000190 bf 60 ee be 10 4b d9 3e 21 f7 c7 3e be 46 f3 be
       -0.46558186 0.4244008 0.39055732 -0.4751491
0001a0 e8 ea dc be 21 c2 11 3f 78 58 e8 3e a0 c8 e8 be
       -0.4314797 0.5693684 0.45379996 -0.45465565
0001b0 88 6a d1 be 45 d7 58 3f fc 68 01 bf ae a6 dc 3e
       -0.4090159 0.84703475 -0.5055082 0.43095917
0001c0 7a 76 0a 3f 3d 32 0f bf 74 9a 02 3f 85 79 ff 3e
       0.5408703 -0.5593603 0.51016927 0.498974
0001d0 a8 51 d5 3e aa 74 ee be 2d 6e f5 3e 30 2d d9 3e
       0.4166386 -0.46573383 0.4793562 0.42417288
0001e0 c0 3f 10 bf f8 1d dd 3e b5 70 38 bf 09 69 03 bf
       -0.56347275 0.43186927 -0.7204698 -0.51332146
0001f0 35 59 00 3f cc 19 e4 be 2a 10 ed 3e 0a 24 d8 be
       0.5013612 -0.4455093 0.46301395 -0.42214996

netsigma.net.0.weight f4 [128, 2]
000000 a3 00 f3 3c f5 b9 5a 3e 22 22 d0 ba d9 4e bc 3d
       0.02966339 0.2136 -0.0015879313 0.091947265
000010 98 3f 9c bc 58 82 74 3d 5b 16 4c bd 0b 9d 0a bd
       -0.019073293 0.059694618 -0.049826007 -0.033841174
000020 fa c8 62 bd 17 0b 3f 3d 83 03 26 be 97 7e c6 3d
       -0.055367447 0.046641435 -0.16212277 0.09692114
000030 89 45 ea be a0 9a 96 be e3 22 d3 3d ad 28 bd bd
       -0.45756176 -0.29414845 0.103093885 -0.09236274
000040 fd 13 7b bd d7 31 19 be 6f 5b b7 3d 80 98 31 bd
       -0.06129836 -0.14960419 0.089529864 -0.043358326
000050 2e 38 0b 3e c9 ee d7 3d b4 4c 08 3e af 54 67 3e
       0.1359565 0.105435915 0.1331051 0.22590898
000060 60 d1 cb bd 09 dd fa 3d 82 81 9e 3d 2d 0a 51 3d
       -0.099520445 0.1224919 0.077395454 0.051035095
000070 64 1a 17 bd 61 89 5d bc d6 9e a2 bd 95 90 4f be
       -0.036890402 -0.013521523 -0.07940452 -0.20269997
000080 64 b0 0a 3e 58 df 25 bd 6b 31 08 3e aa 48 ca bd
       0.1354385 -0.0404962 0.13300101 -0.09877141
000090 36 cc d1 3e 56 cb d5 3e 96 a9 ad 3e ca cc 70 3d
       0.40976113 0.41756696 0.33918446 0.058789052
0000a0 d7 ce 08 be a8 08 fe bd 94 87 1b 3e 62 c8 64 3c
       -0.13360153 -0.12403995 0.15188438 0.013963791
0000b0 0b 6b af 3e 9a 83 09 3e f6 89 bb bb 61 14 1a 3e
       0.34261355 0.13429108 -0.0057232333 0.15046836
0000c0 71 1d e7 3c 8c 6c 9f bd a4 ee 92 3d 34 63 e5 3d
       0.028212281 -0.077843755 0.07174423 0.11200562
0000d0 ab fa 28 be 6b 8d 2b 3e cf 0c 5c be dc 90 af be
       -0.16501872 0.16753165 -0.21489261 -0.34290206
0000e0 b9 91 fb bd c9 1d 32 bb 0f 0f b7 3c 2c c0 ca 3d
       -0.12283654 -0.0027178398 0.022346048 0.09899935
0000f0 36 4f 08 3e 54 e0 df 3d 87 0e ca 3c f3 d9 37 3d
       0.13311467 0.10931459 0.02466513 0.044885587
000100 11 12 d7 bc 40 e2 57 be 99 a0 b5 be 74 71 95 be
       -0.026253732 -0.21082401 -0.3547409 -0.2918812
000110 27 52 87 bc 8e 46 be 3c da c4 10 3e 1a e9 1e bc
       -0.016518665 0.023227002 0.14137593 -0.00969913
000120 de 24 0e be e2 37 88 3d 91 4f 03 3e 1e 3d 41 bd
       -0.13881251 0.06651284 0.12823321 -0.047177427
000130 4e 64 bc 3c 65 d6 ef 3d 7a 1b b1 bd 88 98 49 3d
       0.022997048 0.117108144 -0.08647819 0.04921773
000140 54 1f 93 3e 59 0b 74 bd 42 f3 5f 3d 07 71 52 bd
       0.2873484 -0.059581134 0.054675348 -0.051377323
000150 f4 74 5b be 16 f5 a6 3e 38 66 98 be b5 32 11 3e
       -0.21431333 0.3260886 -0.29765487 0.141795
000160 c3 c5 04 be e2 99 40 3c 5a 6d 4d 3d 63 6d 2c 3b
       -0.12966065 0.0117554385 0.050153114 0.0026310317
000170 bb dc dc 3d b2 cb ba 3d 4b 76 a8 bd 8f 2c 11 bd
       0.107842885 0.09120883 -0.082256876 -0.035442885
000180 44 b5 c3 bd db 1a ab 3d d0 4b 4a 3d 10 c6 29 3d
       -0.09556058 0.08354732 0.049388707 0.041448653
000190 2c 65 dc 3d 6d 51 61 3d 48 8f 9d bd d6 07 37 be
       0.107614845 0.055009294 -0.07693344 -0.17874083
0001a0 66 18 d1 ba 68 57 b0 3c 8e 83 ac bd 3b 4e 06 be
       -0.0015952706 0.021526054 -0.084235296 -0.1311578
0001b0 68 aa cb bd ca 97 a1 bd 23 c7 85 bb a4 dd 1e 3d
       -0.09944612 -0.078902796 -0.004082577 0.03878559
0001c0 9b ad 75 3e 1e 29 ab bd 34 9f e7 3e dd 13 f5 3b
       0.23992006 -0.08357452 0.4523865 0.0074791745
0001d0 02 f3 71 3e d2 e0 07 3c 88 a2 8b 3d 9d 0d af bd
       0.23627856 0.008293347 0.0681811 -0.085475184
0001e0 e0 56 50 3d c5 5a 11 3c 35 e3 a8 be 5f be 5c 3d
       0.0508641 0.008871739 -0.32985845 0.05389249
0001f0 86 65 53 be c1 be 50 3c fa 20 80 be 45 62 d9 bb
       -0.20644197 0.012740792 -0.2502516 -0.006634029
000200 34 a7 12 bc a2 c5 68 bd dc ec 22 bd a2 73 17 3e
       -0.008950997 -0.056829102 -0.039776668 0.14790204
000210 a1 9e 87 39 29 9e 81 be e0 c2 4d 3e f7 55 33 3e
       0.00025867394 -0.2531598 0.2009387 0.17513262
000220 98 88 4d be ba c7 a1 3c 7a 7c 2f 3e 17 23 ec bc
       -0.20071638 0.019748557 0.17137328 -0.028825326
000230 0a 23 28 3e 05 c8 f5 3d 39 11 2c be 12 ab 82 3e
       0.16419616 0.12001041 -0.16803445 0.2552114
000240 02 6c 42 bd d4 2a 2f 3e a3 cf 0f be 5e 08 9b bc
       -0.047466286 0.17106181 -0.14044051 -0.018924888
000250 7b e5 8f bd 18 75 3f be 0f 04 de bc d2 2b 7d 3c
       -0.07026192 -0.18697011 -0.027101545 0.015452342
000260 f7 50 ff 3d 86 86 95 bd 40 29 97 3e 93 c1 b0 3d
       0.12466615 -0.07301049 0.2952366 0.08630671
000270 9c a0 3d be f6 0c f6 bd 13 51 9b bd 0f d7 40 be
       -0.18518299 -0.12014191 -0.07583823 -0.18832038
000280 65 09 91 3d 77 93 93 3d 52 4d 01 bd db 3e 58 bd
       0.0708187 0.07205861 -0.03156788 -0.05279432
000290 00 f8 0c 3e b1 32 ad 3d 2d c1 f6 3b 19 8b c9 3d
       0.1376648 0.08456934 0.0075303526 0.09840984
0002a0 d2 13 14 3e e6 f1 9d 3d 12 df a0 3d fa df 95 3e
       0.14460686 0.07712154 0.07855047 0.29272443
0002b0 08 0d c5 3d 0a 86 85 bb 20 00 1d bd 8f cf 09 3e
       0.09621626 -0.0040748166 -0.038330197 0.13458084
0002c0 3f 47 48 3d ff 3c 01 3d 69 89 20 be ea 5d 5b bc
       0.04889607 0.03155231 -0.15677418 -0.01338909
0002d0 98 21 02 3d 53 f3 50 3d b6 09 6d bd f9 ee 9f 3d
       0.03177032 0.051013302 -0.05787059 0.07809252
0002e0 d0 57 69 be e4 67 2d bd 55 c3 2b be 73 40 52 3c
       -0.22787404 -0.042335406 -0.16773732 0.012832749
0002f0 7d 24 19 be b9 97 36 be e8 9a dd 3d 0d 3a 89 be
       -0.14955325 -0.17831315 0.10820562 -0.26802102
000300 14 08 04 3e a1 4b 69 3d 48 2d d4 bd 9d 5c ad 3d
       0.12893707 0.05695689 -0.10360199 0.0846493
000310 4c 8f 31 bd 32 90 d0 bd 51 e2 38 3e c5 90 8a be
       -0.04334955 -0.10183753 0.18055083 -0.27063575
000320 cc 60 ed 3d c3 81 b9 bd 5e 90 c0 3d 35 7c c0 be
       0.11590728 -0.09057953 0.09402536 -0.37594762
000330 e5 23 99 bc 6e bd 25 3e f5 01 3a 3e 11 9c d0 bd
       -0.018693874 0.16185543 0.18164809 -0.10186017
000340 98 a4 b8 3d d2 80 dd 3e c1 bc 84 bd ba aa 9e bd
       0.09015769 0.43262345 -0.064813145 -0.07747407
000350 eb 0e de 3c ff 5d b6 bd e7 40 11 3e be 85 15 bd
       0.027106723 -0.08904647 0.14184915 -0.0365045
000360 d0 68 92 be 90 93 3a be 47 47 e8 3d 56 bf c3 3d
       -0.2859559 -0.18220353 0.1134172 0.09557979
000370 e2 b2 78 3d 59 20 47 be 0a 35 00 be 5b 85 c0 bd
       0.06071747 -0.19445933 -0.12520233 -0.094004355
000380 fa 72 a2 be bc 74 c7 3d d5 a7 1c 3d 37 a5 b6 3d
       -0.31728345 0.09739062 0.038245995 0.08918231
000390 5e cd 8d 3e a1 50 4b bd 93 4c db 3d a7 bb a7 bc
       0.27695745 -0.04963744 0.10707965 -0.020475222
0003a0 ca 86 9e 3e 49 a8 df 3d f0 89 67 bd f0 ca 30 bd
       0.3096221 0.1092077 -0.05652803 -0.043162286
0003b0 f6 87 de 3d 27 62 5b bc a7 af 9e 3d 8e 7c 1d 3e
       0.10865776 -0.013390101 0.07748347 0.15379545
0003c0 53 ab 98 3d 0e 7a 51 3d b7 0f 89 bc f0 dd 6d 3e
       0.074545525 0.05114179 -0.016731126 0.23229194
0003d0 a9 0e 98 be 91 c3 b7 be ff 62 dc bd 93 7e 51 3e
       -0.29698685 -0.35891393 -0.107610695 0.2045844
0003e0 a0 88 ac 3d 92 bc 0f bc 97 1b f9 3d 30 81 80 3d
       0.08424497 -0.008772986 0.121634655 0.062746406
0003f0 63 47 0e bb 1c 74 6a 3d 0d 63 44 3e 24 7a ac 3c
       -0.002171003 0.057239637 0.1917841 0.021054335

netsigma.net.0.bias f4 [128]
000000 92 93 86 bd e1 5b 4d bd 35 a2 47 bd ed d7 93 3d
       -0.065711156 -0.05013645 -0.048738677 0.07218919
000010 97 8e 94 3d b4 b0 8f 3d fb 80 5e 3e e2 6b 7a bd
       0.07253759 0.07016125 0.2172889 -0.06113804
000020 08 f2 76 bc 1d 9b 9b bc f2 84 d8 bd 6a 3c 11 3c
       -0.015072353 -0.018994862 -0.10572232 0.0088645015
000030 f5 22 67 3d c0 af be bd 76 3f 90 3d d6 67 d4 3d
       0.056429822 -0.093108654 0.07043354 0.10371368
000040 66 64 9e bd ea 38 fb 3c f0 d5 a4 bd ec ca 0b be
       -0.07733993 0.030666787 -0.08048618 -0.13651627
000050 13 74 cf 3d 80 cd 98 bd 29 33 c9 bd 44 69 5f bd
       0.10129561 -0.07461071 -0.09824211 -0.05454375
000060 6f f3 74 bd ba 9a a0 bd 04 c0 24 3d d1 83 2d 3d
       -0.05980247 -0.07842012 0.040222183 0.042362038
000070 9b a2 af 3d d8 1b 77 bd c3 20 dc bd d3 b8 93 bd
       0.085759364 -0.06032929 -0.10748436 -0.07212987
000080 ce 21 ab bc de 2d f4 3c 89 04 81 bd db 2b 9c bd
       -0.020890143 0.029807027 -0.06299693 -0.07625552
000090 13 75 02 bc 91 51 b3 bd 6e 33 25 3d ab f7 8f 3d
       -0.007962483 -0.08755792 0.04033225 0.07029661
0000a0 71 f6 b7 bd f2 a0 23 3d fe ff 0b bc b7 7a 87 3d
       -0.08982552 0.03994841 -0.00854492 0.06615203
0000b0 a6 9e 50 3c 05 3d 49 3d 21 af 9d bd 81 61 af 3d
       0.012733137 0.04913046 -0.07699419 0.08563519
0000c0 1c 03 5a 3d 6e f9 9c bd ed a7 b3 bd f1 c6 b8 3d
       0.05322562 -0.076647624 -0.08772264 0.0902232
0000d0 67 f6 82 bd ad 55 c2 3d 67 da 4c 3c 9f d2 3a 3d
       -0.06394654 0.094889976 0.012503243 0.04561102
0000e0 c6 2a de bd 6d 0c 4d be e5 6f e3 bc a6 4a 61 bd
       -0.10848002 -0.20024271 -0.027763316 -0.05500283
0000f0 eb 73 31 3d 13 52 8e 3d 61 05 ea 3b cd 79 15 3e
       0.04332344 0.06949248 0.0071417545 0.14597245
000100 43 8c 62 3d 21 a7 25 bd de 06 80 3d a0 ad 19 be
       0.055309545 -0.04044259 0.0625131 -0.15007639
000110 3e 1e ba 3c 82 a7 aa bd 8d c3 89 bc c6 f7 a7 bb
       0.022719499 -0.08332731 -0.016816879 -0.0051259724
000120 af 85 29 bd ac 56 a4 3d bf 2f 0c 3c 2a 0f 9a 3d
       -0.041387256 0.08024344 0.008556305 0.075224236
000130 e8 71 95 bd 1a 4e 91 bd 51 0e 8f 3c 62 5f 3e bb
       -0.072971165 -0.07094975 0.017462881 -0.0029048552
000140 80 df 9d bd 71 63 7e 3d a4 d9 4b 3c 78 34 39 3d
       -0.07708645 0.062106553 0.012442026 0.045216054
000150 dd 3a 00 3d 31 c1 d0 bc d3 12 b1 bd 64 bf 22 bd
       0.031306136 -0.025482746 -0.086461686 -0.039733306
000160 0f 71 8d bd 44 49 98 3d a2 58 8b bd 54 cc 5d 3d
       -0.0690633 0.07435849 -0.06804015 0.05414994
000170 dd 68 de 3d e7 cb 49 3c cd a0 f7 3b 32 5d 1e bd
       0.10859845 0.0123166805 0.0075570107 -0.038663097
000180 9b 7f be bd 5b e7 92 3d 93 18 7a 3d 51 45 ca 3a
       -0.093016826 0.07173034 0.061058592 0.0015432035
000190 30 21 7c bd cc c6 6d 3d 36 f3 be 3c 5c 5d 0b bd
       -0.061555088 0.058050916 0.023309331 -0.03402458
0001a0 05 b5 26 bd 15 24 12 bd 76 c8 79 bd ed fb bd bd
       -0.040699977 -0.03567894 -0.06098219 -0.09276567
0001b0 9b c9 dd 3c 7b 67 b2 bb 75 05 0e 3d f1 9b ca 3d
       0.027073672 -0.0054444647 0.034673173 0.09893025
0001c0 6f 65 a2 3d 58 bb 99 bd 2f cf 82 bd ff 82 98 bd
       0.07929503 -0.07506436 -0.063871734 -0.074468605
0001d0 11 3b 2d bd fd 14 9b 3d 17 55 a2 bd 5b 55 7d bd
       -0.04229266 0.075723626 -0.07926386 -0.06184898
0001e0 6a 2f a8 3c 38 f5 ea 3c bb 67 63 3d 58 ff 76 3c
       0.020530421 0.028681383 0.055518847 0.015075527
0001f0 0e 28 91 bd 05 e2 d5 3a 1c 2f 6f bd 76 3a 7c bc
       -0.07087718 0.001631797 -0.058394536 -0.015394798

netsigma.net.2.weight f4 [128, 128]
000000 d5 f8 70 be 73 4b 10 bd de 93 40 bd ec b5 8a 3e
       -0.23532422 -0.035228204 -0.047016017 0.2709192
000010 b9 7a 81 3c 73 b5 ae 3d 4c be a8 bd 28 76 98 3d
       0.015805589 0.085307024 -0.08239421 0.074444115
000020 39 6a 1e 3e 60 f9 a9 3d da ee 9c 3d f8 45 d3 bc
       0.15470208 0.08299518 0.07662745 -0.0257902
000030 04 ce 7d 3d d0 c6 3b be 50 3f e3 3c a1 ff ab 3d
       0.06196405 -0.1833756 0.02774015 0.08398367
000040 3a 2c 04 bd f4 bb 26 3d f0 7d 94 3d 83 36 84 3c
       -0.03226874 0.04070659 0.07250583 0.016139274
000050 46 f9 d0 3c b8 2b a5 3d 52 6d 8b 3d 2e 64 1b 3d
       0.025509488 0.08064979 0.068079606 0.037937336
000060 15 e4 39 bd b3 4a 74 3d 08 fb d5 3c f6 b6 93 bd
       -0.04538353 0.05964155 0.026120678 -0.072126314
000070 00 6d 2d 3e 43 53 38 be cd 0d a8 bd d4 96 39 be
       0.16936111 -0.18000512 -0.08205757 -0.18123943
000080 5a 19 d2 ba a1 19 a3 bc 53 d1 3b 3e 19 14 cb bd
       -0.0016029284 -0.019909682 0.1834157 -0.09915943
000090 36 a8 0a be 84 72 79 3d e8 e4 0d 3e 3c de 77 3e
       -0.1354073 0.060900226 0.13856852 0.2420587
0000a0 6b 24 2d be 8f 24 17 3e 49 bd 09 bd 59 fd d3 3c
       -0.16908424 0.1476004 -0.033627782 0.025877642
0000b0 df 17 3f be 76 a6 cc 3d 7b 2f 8a bd 06 4d df bb
       -0.1866145 0.099926874 -0.067473374 -0.006814602
0000c0 3f 8a d8 bd d8 78 0b be b6 62 44 3d 53 fb 23 bd
       -0.10573243 -0.13620317 0.0479457 -0.040034603
0000d0 d6 f0 f1 bd 16 37 67 3e 59 16 a0 bc 6d 56 35 3e
       -0.11813514 0.22579607 -0.019541906 0.1770875
0000e0 9f 80 55 3e 8c 74 d4 3d 7f 95 c4 3d 6e 78 10 3d
       0.20849846 0.10373792 0.095988266 0.0352711
0000f0 b8 59 2e 3b 32 1b 03 3d 1e a4 f8 bd 20 24 04 be
       0.002660377 0.032008357 -0.12140678 -0.12904406
000100 0b 59 0b 3d e9 64 3a be 4d b6 d3 ba 30 fe 2a bc
       0.034020465 -0.18202557 -0.0016152352 -0.01043658
000110 c3 57 b7 3c e0 99 7d be 18 9a 9d bc 0b dc 91 3d
       0.022380715 -0.2476573 -0.019238517 0.07122048
000120 d3 82 0a be 57 e4 20 3c 5d d4 04 be 58 46 d1 3d
       -0.13526468 0.009820065 -0.12971635 0.10218495
000130 80 41 45 3d 5b 3b 68 3d 98 29 85 3d c8 4a b9 bd
       0.04815817 0.05669723 0.06502074 -0.090474665
000140 66 e9 96 bd f6 f5 03 3e a9 3f 39 bc c4 e6 50 3d
       -0.07368736 0.12886795 -0.011306682 0.051001325
000150 9e a9 68 bc 00 de c2 bc cb 71 e3 bd 02 ff a8 be
       -0.014200596 -0.023787498 -0.11105689 -0.33007056
000160 f3 04 97 bd 6a c1 f9 bc ff 5b 8e 3c 39 b8 a1 bd
       -0.07373991 -0.030487735 0.017377852 -0.07896466
000170 e9 4c 4c 3e b6 fb 0a be b7 0d 6d 3d dc 50 02 bd
       0.19951214 -0.13572583 0.057874408 -0.031815395
000180 e4 dd 41 be bd 73 6e bc 17 3c 23 3d 02 80 39 3c
       -0.18932301 -0.014553961 0.039852228 0.011322023
000190 b8 5a d0 bd 79 ee be 3c 9e 24 a9 bd fa a4 0c be
       -0.10173553 0.023307072 -0.08258937 -0.13734809
0001a0 17 18 c1 3d 69 c6 6e bd c2 0a cd 3d 06 eb 48 be
       0.09428423 -0.058294687 0.100118175 -0.19620904
0001b0 49 45 ae bc e3 b0 84 3d 11 40 e5 bc 62 7a c8 3c
       -0.021273272 0.06479051 -0.02798465 0.02447242
0001c0 51 8c f4 3d 4f 49 91 bc 6d fd e6 bd 22 07 91 bb
       0.11940826 -0.017735152 -0.11278806 -0.004425899
0001d0 77 21 ec 3b a5 1d 38 3c 58 27 f2 3c 01 b5 39 bc
       0.0072061378 0.011237537 0.029559776 -0.011334659
0001e0 8c 6e 70 bd 43 41 ed bc b6 24 34 be cb 01 88 3d
       -0.058699176 -0.028961783 -0.17592129 0.06640967
0001f0 9c a4 ce 3a 38 6d 8d 3d 83 56 c2 bd bb d4 38 bd
       0.001576561 0.069055974 -0.09489157 -0.04512475
000200 da a4 24 bd 87 7c 49 bc c1 5e 50 3e 53 84 1b be
       -0.040196277 -0.012297756 0.20348646 -0.15187196
000210 56 3c 3e bd 01 f6 68 bd 65 c5 6d 3b e5 f0 50 3d
       -0.04644426 -0.056875233 0.0036280986 0.051010985
000220 b4 8d 6e bd f6 19 e2 bd 49 b8 8d 3c d7 c5 1b be
       -0.058240607 -0.11040108 0.017299788 -0.15212189
000230 7a 09 73 bd 95 90 d9 3d 1a aa d5 3b b2 6a b1 3d
       -0.05933521 0.1062328 0.006520522 0.08662929
000240 cc 7d 67 bd fb c7 a9 3d 02 c1 88 bd 01 74 80 3d
       -0.056516454 0.08290096 -0.06677438 0.06272126
000250 44 db 70 3d 5e 7c a4 bc 57 1f 60 bd 68 e0 a0 bd
       0.058802858 -0.020078834 -0.054717388 -0.07855302
000260 3e da 52 3d 26 67 cc 3b 71 9a e5 3c 2c 6a bd bc
       0.051477663 0.006237882 0.028027745 -0.023121916
000270 7d 94 1d bd a5 5d 8e 3d 78 32 9a 3d 4f bf 9b 3d
       -0.038471688 0.06951455 0.075291574 0.076048486
000280 37 39 7b 3d 76 26 81 3d 38 d5 03 3d 3f 82 2f 3d
       0.06133386 0.06306164 0.032185763 0.04284882
000290 e6 82 8a 3e 62 7d d7 bd 4f 57 bc bc 55 02 14 be
       0.27052993 -0.10521962 -0.02299085 -0.14454015
0002a0 9f f5 3e 3d 42 fb fc 3d 46 14 84 b9 ec 2d f8 bb
       0.04662096 0.12352611 -0.00025192107 -0.0075738337
0002b0 2c 31 0f bd 8a 5a c9 bb d5 dd 70 3e 39 23 81 be
       -0.034959003 -0.0061448263 0.23522122 -0.25222185
0002c0 fb 75 4a 3e 7f ca 13 3c 4a ba 38 3e 27 6b 30 3e
       0.19771568 0.009020447 0.18039814 0.17228375
0002d0 65 8a 12 3e e2 05 b1 3d 8a 92 e1 3c 0a a6 23 3e
       0.14310606 0.086437 0.027535696 0.15981308
0002e0 bc 37 03 3e 9e 8f dc bb c6 28 72 3c 77 3f 1f bd
       0.1281423 -0.0067309877 0.014780229 -0.038878884
0002f0 e9 39 86 bd 08 dc 32 3d cd 11 ea 3d e6 c3 c7 bc
       -0.06554014 0.04366687 0.114291765 -0.024385404
000300 95 53 36 bd 25 1f 9b 3d 69 44 ab bd 8a 54 18 3d
       -0.044513304 0.075743 -0.083626576 0.037189998
000310 b1 10 ca bc f3 3b 2c 3e 98 35 de bd 5d 53 26 3d
       -0.024666162 0.16819744 -0.10850066 0.040606845
000320 89 9d 72 3d f6 4a 37 bd 41 0e af 3d 87 b4 6f be
       0.05923227 -0.044749223 0.085476406 -0.2340871
000330 1c 76 d2 3d 10 cb 4c bd 80 9b a5 3c a6 c6 91 3d
       0.10276434 -0.049998343 0.02021575 0.07117967
000340 b9 cb 86 bd 0d d7 d3 bd 8b 40 f7 bc df d5 64 bd
       -0.06581826 -0.10343752 -0.030182144 -0.055868026
000350 3a 7a 67 b9 a4 b3 10 3e 5e 13 31 bd 71 cd 13 3e
       -0.0002207541 0.14131027 -0.04323136 0.14433838
000360 d3 0a 5a bd 00 5d 89 bd 52 5b b2 3c 34 c5 14 3d
       -0.05323298 -0.067071915 0.02177206 0.03632088
000370 8b f2 6e bd a9 08 7e bc 4d 4f 93 bd 12 6a 83 bd
       -0.058336776 -0.015504994 -0.0719286 -0.06416716
000380 06 ef 13 3e 55 96 d7 bd 40 10 10 be 59 7c a5 3d
       0.14446649 -0.105267204 -0.14068699 0.08080358
000390 47 38 e2 bc db b9 8b bd 0e 0f 6b 3c 91 22 08 bc
       -0.027614726 -0.068225585 0.014346851 -0.0083090225
0003a0 fe 34 bf bd 2e b4 87 3d 1c 81 83 3d fc d7 e4 3d
       -0.09336279 0.066261634 0.0642111 0.11174008
0003b0 c6 36 90 bd 6a 83 cd bd 03 1a f3 3c 67 ff 26 bc
       -0.07041697 -0.10034831 0.02967549 -0.010192729
0003c0 0c 4e 56 3e 15 1d 2b 3e e5 d7 27 be db 5f c6 3d
       0.2092821 0.16710313 -0.16390951 0.09686252
0003d0 19 6e 97 3b b6 53 94 3d 3e 9f d4 bd d5 c8 26 3e
       0.004621279 0.07242529 -0.103819355 0.16287549
0003e0 6e 00 03 be e9 b7 bb 3d 2e f3 dd bd 21 88 9c bd
       -0.12793133 0.091659375 -0.108373985 -0.07643152
0003f0 6f fe a4 3d 99 95 3e bc 79 26 bf 3d 96 cb 32 3e
       0.08056342 -0.011632347 0.0933351 0.17460474

netsigma.net.2.bias f4 [128]
000000 aa 69 7a 3d f2 e3 7b bd 52 fc 64 3d b2 cc 6a 3d
       0.061135925 -0.061496682 0.055904694 0.05732412
000010 d2 a4 6a 3d 5c b7 66 bd a8 92 77 3d b5 ec 82 bd
       0.05728609 -0.05632721 0.060442597 -0.063928045
000020 66 02 6b bd 15 c0 77 3d 87 08 7d bd 4b dc 56 bd
       -0.057375334 0.060485918 -0.06177571 -0.05245618
000030 e9 35 35 3d 33 27 6a bd cc 2d 7b bd 0b 99 5e 3d
       0.044240866 -0.05716629 -0.061322972 0.054345172
000040 8e de 1e 3d 0f 78 6a 3d 58 3a 73 bd a4 26 7d bd
       0.038786463 0.057243403 -0.059381813 -0.06180443
000050 02 00 78 3d 54 c9 db 3c f2 6d 74 3d ad cb 79 3d
       0.060546882 0.0268294 0.059675165 0.060985256
000060 36 10 4c bd d1 77 63 3d 0f c3 78 bd c4 6d cb 3b
       -0.049820147 0.055534188 -0.060732897 0.0062081534
000070 8d 20 7f 3d 86 13 83 3d 2e 6c 7d 3d 8d 83 33 3c
       0.062286902 0.06400208 0.061870746 0.010956657
000080 e0 ed 78 3d a6 e2 70 bd 34 cb d4 3c 69 58 73 bd
       0.06077373 -0.0588099 0.025975801 -0.059410486
000090 60 10 7e 3d 47 2d 70 bd f3 96 3b 3d eb 74 80 3d
       0.062027335 -0.05863693 0.045798253 0.062723
0000a0 c7 81 7e 3d ee f0 76 3d 74 b2 71 3d e5 c6 81 bd
       0.062135484 0.060288362 0.059008077 -0.06336764
0000b0 33 ba 6f 3d 64 f9 76 bd 00 ab 42 bd ff c2 71 bd
       0.058527183 -0.06029643 -0.04752636 -0.059023853
0000c0 1d 47 7a 3d 79 c5 81 3d 84 c0 16 3d 99 31 77 3d
       0.061102975 0.06336493 0.03680469 0.060350034
0000d0 c0 b3 79 bd 02 6f 73 bd 4d 64 07 bd 26 d0 6b 3d
       -0.06096244 -0.059432037 -0.03305464 0.057571553
0000e0 f3 65 85 3d e3 14 64 3d 6f e5 76 bd 7d b7 c8 3c
       0.06513586 0.05568398 -0.0602774 0.024501557
0000f0 8d 88 7b bd b8 3d ae 3c 4a cb 7a bd f9 0f 7b bd
       -0.06140952 0.021269664 -0.061229028 -0.06129453
000100 94 3a 80 3d d9 52 72 bd 86 b5 6f bd b9 43 75 3d
       0.06261173 -0.05916104 -0.058522724 0.05987904
000110 f0 7b 60 3d 42 c3 7d bd 7e 82 76 bd a5 88 74 bd
       0.054805696 -0.06195379 -0.06018304 -0.059700627
000120 df 12 69 3d 55 14 72 3d b1 e5 50 bd 4d d7 27 3c
       0.056902763 0.05910142 -0.0510003 0.010244203
000130 9a fc 37 3d 9a 47 6f 3d 31 c7 28 bd e6 02 72 3d
       0.044918634 0.058417894 -0.04120559 0.059084795
000140 25 c3 bd bd aa 80 7a 3d e4 47 7a bd 75 9d dc bd
       -0.092657365 0.06115786 -0.061103716 -0.1077222
000150 0b 3f 81 bd b0 27 70 bd 6f a8 9a bc 02 e1 7f 3d
       -0.063108526 -0.0586316 -0.018879144 0.062470444
000160 98 4c 72 bd 85 85 75 bd 9a 1f 7f 3d 68 d6 7d 3d
       -0.059155077 -0.059941787 0.062285997 0.06197205
000170 87 22 04 bd 34 41 80 3d 10 e1 9e 3d a9 88 7e 3d
       -0.03225949 0.062624365 0.07757771 0.062142048
000180 e6 ef 68 3d d0 08 c8 bc 88 49 71 bd d7 c8 7c 3d
       0.05686941 -0.024418265 -0.058908015 0.061714973
000190 65 01 63 3d f0 4d 61 bd c9 ed 58 3d 9c e1 78 bd
       0.05542125 -0.055005968 0.052961145 -0.060762033
0001a0 f9 55 84 3d 3d 72 53 3d 6f 2a 6e 3d 2f 86 75 bd
       0.064617105 0.051622618 0.058145937 -0.05994242
0001b0 55 cd 36 bd 3f 6b 60 bd f9 cc 80 bd a0 db 08 bd
       -0.044629414 -0.054789778 -0.062890954 -0.033412576
0001c0 8f 72 74 bd ac 1d 6d 3d f4 ff 6d 3d 6b 3f 7f bd
       -0.059679564 0.057889625 0.058105424 -0.06231634
0001d0 0e e8 64 3d be 6a 7a 3d 2e 8e 63 bd b6 5b 64 bd
       0.055885367 0.061136954 -0.055555515 -0.055751525
0001e0 c7 18 80 3d 7d 1b 7d 3d 7e 3a 79 3d e1 cc 6a 3d
       0.06254726 0.061793793 0.060846798 0.057324294
0001f0 af 85 7d 3d f3 8e 73 bd 53 0a 51 bd 12 09 6a bd
       0.06189507 -0.0594625 -0.051035237 -0.057137556

netsigma.net.4.weight f4 [1, 128]
000000 dc e8 29 be 5e 89 31 3e 32 c1 1d be c0 5f ae bd
       -0.16592735 0.17337558 -0.1540573 -0.085143566
000010 a9 f6 00 be f5 6a 07 3e c7 11 8a be 4e 49 4d be
       -0.12594093 0.13224395 -0.26966688 -0.20047495
000020 7c 14 07 3e 6b 39 54 be d3 dc 32 3e 3b 60 06 3e
       0.13191408 -0.20725028 0.1746705 0.13122647
000030 59 be 86 be c4 eb 9c 3d d4 67 26 3e be 8a a7 bd
       -0.263171 0.07662156 0.16250545 -0.0818076
000040 7b 7b 98 bd d0 ed 3f bd bd e2 24 3e 29 08 31 3e
       -0.07445427 -0.046857655 0.16102119 0.17288269
000050 ca 72 88 bd 3d 0b ba bd b2 63 23 be b6 14 41 bd
       -0.06662519 -0.09084175 -0.15956 -0.047138892
000060 6c 49 69 3e a4 85 26 be 20 4d 6f 3e 93 8a c2 bd
       0.22781914 -0.16261917 0.23369265 -0.09499087
000070 b0 44 06 be b9 c1 5b bd 60 de 8c bd 04 f4 0b be
       -0.1311214 -0.053651545 -0.06878352 -0.13667303
000080 8c 70 33 be 56 38 b3 3d 76 d3 71 be fa 86 11 3d
       -0.17523402 0.087509796 -0.23615822 0.035529114
000090 a0 b5 ff bd 6e 80 c8 3d 63 08 ad bc d6 91 6d bd
       -0.12485814 0.09790121 -0.021122163 -0.058000408
0000a0 05 42 ed bd cc 94 04 be a3 f1 23 bd 8d 3c 98 3d
       -0.11584858 -0.12947387 -0.040025365 0.07433424
0000b0 90 70 21 be 09 81 b0 3d 6b d1 93 3c 1c f7 86 3e
       -0.15765595 0.086183615 0.018044194 0.26360404
0000c0 fd f0 2c be 5f 5a 75 bd 48 4a 63 bb f2 27 54 be
       -0.16888805 -0.059900638 -0.0034681726 -0.20718363
0000d0 b6 46 d4 3d 80 59 95 3d 67 79 48 bb da da 4f 3e
       0.103650495 0.072924614 -0.003058994 0.20298329
0000e0 22 21 6f bd 68 0e 2c be 7c f2 09 3e 17 a2 7c 3e
       -0.058381207 -0.1680237 0.13471407 0.24671207
0000f0 50 2f ac 3d 01 1b 1f be a1 93 2c 3e 86 33 da 3d
       0.08407462 -0.15537645 0.16853191 0.106543586
000100 27 22 ed bd b2 33 6c 3e 65 d2 86 3e 20 6b 23 be
       -0.1157878 0.23066595 0.26332393 -0.15958834
000110 58 26 51 bd 3d 98 6b 3d b7 7a 5d 3e de ce ba 3d
       -0.051061958 0.057518233 0.21628843 0.09121488
000120 80 d3 d0 bd 23 e2 63 be ff f1 f8 3d 50 d2 97 be
       -0.101965904 -0.22254233 0.12155532 -0.29652643
000130 8b 3e 9f 3e b8 07 66 be 46 d3 7c 3e 7e 98 9c be
       0.31102404 -0.22463882 0.2468997 -0.30585092
000140 78 97 fd bd ec ac b8 be 4b ac 2d 3d 0a 88 20 be
       -0.12382406 -0.3606943 0.04240064 -0.15676895
000150 e8 35 82 3d 4e 66 0c 3e ce 88 00 3e 28 4e 7e bd
       0.06357938 0.13710901 0.12552187 -0.062086254
000160 25 9c 0e 3e 62 80 1e 3e 8d e5 ed bd 27 f9 43 bd
       0.13926752 0.15478662 -0.11616049 -0.047845032
000170 10 d3 49 3d c2 17 cf bd 97 de 2e 3e 3f 81 33 bd
       0.04927355 -0.10111953 0.17077099 -0.04382443
000180 dd c7 29 be 05 2e 18 3d 86 4c b8 3d b3 53 72 bd
       -0.16580148 0.037153263 0.08998971 -0.059161853
000190 8c f1 ae bd f0 63 31 3d 17 00 27 be 0e d4 31 3e
       -0.08542165 0.0433082 -0.16308628 0.17366049
0001a0 92 4e ac 3e 42 44 16 bd 9e 9f c0 bd 52 ec d2 3d
       0.33653694 -0.03668619 -0.094054446 0.10298981
0001b0 50 03 60 3e b0 7e 2d be 9b 2c a2 3d 32 0b 46 be
       0.21876264 -0.16942859 0.07918664 -0.19340208
0001c0 b8 88 6e 3e f2 64 6f 3e af 3d 4d be 9f 85 13 3e
       0.23294342 0.23378351 -0.20043062 0.14406441
0001d0 a3 30 45 bd ff ad 10 be 66 56 9e 3d 5c 3c d2 3d
       -0.048142087 -0.14128874 0.07731323 0.10265419
0001e0 c6 63 8f bd 54 d5 df bd 1b 57 36 be 3b 9d 7f be
       -0.07001452 -0.10929361 -0.17806666 -0.24962322
0001f0 57 c2 9c bd 21 16 37 3e c0 9b 85 3e a5 13 af 3d
       -0.07654255 0.17879535 0.2609539 0.08548669
